project/tudui_0.pth (torch, 587527 bytes, 10 tensors)

weight f4 [32, 3, 5, 5]
000000 56 1e a4 bc f2 ec 75 bb 86 77 b8 3d e0 3e da 3d
       -0.020033997 -0.0037525264 0.09007172 0.10656524
000010 3d 0c 72 3d 1e 5d 68 3d 09 c6 96 bd 09 f4 ca bd
       0.059093703 0.05672943 -0.07361991 -0.09909827
000020 03 4f 47 bd 0c 13 2a ba 1e 4e cd bd 42 ba b8 3c
       -0.048659336 -0.00064878236 -0.10024665 0.022549752
000030 c5 70 d8 bd a9 d2 c2 3d 70 dc aa 3d ca ea a7 3d
       -0.10568384 0.095128365 0.08342826 0.08199079
000040 07 6e 3e 3d b7 f0 e0 3d 8f d2 c6 3c e9 8c bb 3d
       0.04649165 0.10983413 0.024270324 0.09157736
000050 e0 7e b2 bc 35 b2 b1 3d 8f cf dd 3b 0b 98 2d bd
       -0.021789014 0.086765684 0.0067691277 -0.042381328
000060 65 41 df bc 4d c9 af bd 72 1f a5 3a 08 81 c1 3d
       -0.027252862 -0.08583317 0.0012597872 0.09448439
000070 06 57 b4 bd 6c d3 01 bb 38 72 bb bd f9 cd 42 3d
       -0.08805661 -0.0019809855 -0.09152645 0.047559712
000080 12 49 e6 bd 29 f3 8e bd 4d 5e cd 3d 9e 8b 26 bd
       -0.11244406 -0.06979973 0.10027752 -0.040660493
000090 2e 55 b5 bd 07 6c c5 bc 44 00 93 bd 16 72 3b bd
       -0.08854137 -0.024099363 -0.07177785 -0.045763098
0000a0 0f 99 cf 3c 15 a6 c3 bd f2 1a 64 3d 82 a3 86 bd
       0.025341539 -0.09553162 0.05568976 -0.065741554
0000b0 44 65 bd bd c8 ce ad 3d 92 0f 4a 3d c5 5c 3d bd
       -0.092478305 0.08486706 0.049331255 -0.04623105
0000c0 5c a7 e0 bc 06 d5 b4 3d 8c 70 a0 3d a9 62 e8 bd
       -0.027423553 0.088296935 0.078339666 -0.11346943
0000d0 08 74 14 bd 3c 94 c9 bd 87 63 95 bd 55 f7 4d 3c
       -0.03624347 -0.098427266 -0.07294374 0.012571176
0000e0 be 8f ae 3c 35 63 b3 bd e7 da 58 3d 6d 7d 9f bb
       0.021308776 -0.087591566 0.052943137 -0.004867247
0000f0 d6 e7 90 bd 62 c8 e3 3d 65 36 85 bc fc 46 13 bd
       -0.07075469 0.11122204 -0.016261289 -0.035956368
000100 e4 2a b3 bd ed 47 ab 3b 5b ac 3c 3d f6 c8 32 3d
       -0.08748415 0.00522708 0.04606281 0.043648683
000110 fe df ad 3d 69 6d bc 3d 41 6b 14 3c 0e 7f 48 bb
       0.08489989 0.09200556 0.009058774 -0.0030593309
000120 fb 91 22 3d 72 0d be 3d 35 41 1c bd e3 c6 52 bd
       0.03969 0.09279908 -0.038148124 -0.051459204
000130 c9 5b b3 3d b0 8f 62 3b 57 84 d3 bb 29 bb 9f bd
       0.08757741 0.0034570508 -0.006454985 -0.0779937
000140 08 d9 0b 3d 52 96 97 3d bf 1f 9d 3c 7e a0 7d 3d
       0.034142524 0.07401718 0.019180177 0.061920635
000150 55 e1 d7 3d 21 4b 06 3d bb 04 ba bd af b9 b2 bc
       0.105410255 0.032786492 -0.090829335 -0.021817056
000160 7e 73 75 3d 0a e1 ae 3d 2f 1d 07 3d 05 72 bb bd
       0.059924595 0.085390165 0.032986816 -0.09152607
000170 3e 6d 09 3c 94 b1 de 3d f0 01 c4 bd 55 42 9a bd
       0.008387862 0.10873714 -0.09570682 -0.07532183
000180 7c 2e b6 3d 54 53 0a bc 5d 00 8d bd b5 c3 cb bd
       0.08895585 -0.008442719 -0.06884835 -0.099494375
000190 28 f0 aa bd 61 48 32 bd 44 6b 3b bd e5 d9 04 bd
       -0.083465874 -0.043526057 -0.045756593 -0.032434363
0001a0 77 02 01 bd 7b b7 df 3d 0b b5 3f 3d 4e 23 d4 3c
       -0.03149649 0.10923668 0.046803515 0.02589574
0001b0 d4 00 a0 bd 6e 84 a9 3d b3 93 c5 3d c4 90 e1 3d
       -0.07812658 0.08277212 0.09647312 0.1101394
0001c0 fb 97 33 bd aa dc dc 3d c7 06 4f bd 68 66 44 bd
       -0.04384611 0.10784276 -0.050543573 -0.047949225
0001d0 d6 77 99 3d c9 b2 a4 3d f0 0b af ba 82 74 db 3d
       0.0749356 0.08041913 -0.0013354998 0.107155815
0001e0 b1 37 dd 3c 3b 89 80 3d e9 46 76 3d c9 ab cb 3b
       0.027004095 0.06276175 0.06012622 0.0062155467
0001f0 62 5c a8 bd 19 8c af 3d b2 28 f2 bc d4 85 d2 3d
       -0.082207456 0.085716434 -0.02956042 0.10279432
000200 2c 8a 8b 3a b1 46 bf bc cd 14 f9 3c 93 6e 3a 3d
       0.0010646037 -0.023349138 0.030405426 0.045515608
000210 81 53 97 3d c2 b3 3d 3d 4f 78 69 3c 57 fe 01 3e
       0.07388974 0.04631401 0.014249875 0.12694679
000220 bc e3 35 bb 78 f0 76 bb 7e 59 40 3d c0 2a 93 3b
       -0.0027754148 -0.0037679952 0.046960346 0.00449118
000230 f8 e7 cd 3d fc a6 31 3d 48 fa 77 3c 52 ba 93 bd
       0.1005401 0.04337214 0.015135355 -0.07213272
000240 66 44 57 3d 34 db 9b bd 87 f2 34 bd 51 fe f5 3d
       0.052555464 -0.07610169 -0.044176605 0.12011398
000250 29 55 8d 3d 8c 25 d8 3d fe 4c d1 bd 02 ee d6 3d
       0.06901009 0.105540365 -0.10219763 0.10494615
000260 78 86 d5 3d 21 57 60 3d fb a9 f3 ba 71 fb e5 3d
       0.104260385 0.054770593 -0.0018590087 0.11229599
000270 93 b2 97 3d 31 c9 0e 3d 3a 25 e9 bd 6a 0d 48 bd
       0.07407107 0.03485984 -0.113840535 -0.048840918
000280 4e f9 d9 bd d3 94 6a bd e2 31 50 3d f4 d0 cf bd
       -0.10643254 -0.057270836 0.050828822 -0.101472765
000290 86 a5 c7 bd 51 2f b7 bd ff 76 aa 3d e9 97 84 bd
       -0.09748368 -0.08944572 0.08323478 -0.06474287
0002a0 36 60 5a bd fd 0c d3 3d e1 5a 1e 3d be 67 7d bc
       -0.05331441 0.10305212 0.038660888 -0.015466629
0002b0 3b e5 46 bd 9b b6 c5 bb 93 1d e5 3d 8b 1c e2 bd
       -0.048558455 -0.006033731 0.111872815 -0.110406004
0002c0 c0 c4 07 bc ad 11 27 3d a3 2c ce 3d be 79 b4 3c
       -0.008286655 0.04078834 0.100671075 0.022030707
0002d0 b0 cd ae bd b7 2e 81 bd ce d7 cc bd 9a 2e cc bd
       -0.085353255 -0.06307738 -0.10002099 -0.09969826
0002e0 08 21 62 3d bf 6c c8 bb ef 8a 69 3d 34 42 15 bd
       0.055207282 -0.006116479 0.057017263 -0.03644009
0002f0 29 d9 e0 bc a6 d4 c4 3d cb d6 77 bd 9e 7f a2 bc
       -0.0274473 0.09610872 -0.060507577 -0.019836243
000300 3c 7c 91 3d 42 f4 33 bd ec df 3c 3d bb 29 9d bd
       0.07103774 -0.043934114 0.046111986 -0.07673975
000310 61 43 aa 3d eb 17 8c 3d 5d 4c bb 3d f6 d0 c2 3d
       0.08313633 0.068404995 0.091454245 0.095125124
000320 2c c0 ec 3d 36 dd cd 3c 57 5c 08 3d 53 bf 3a 3d
       0.115600914 0.025129896 0.033291187 0.045592617
000330 3c d9 ab bd f2 44 9d 3d 3b f4 3a 3d b2 0c 0a 3d
       -0.083910435 0.07679166 0.045643073 0.033703513
000340 27 6c e8 bd 14 b8 b2 3d 6d d2 3b 3d 5e 70 43 3d
       -0.113487534 0.08726516 0.045854975 0.047714584
000350 15 d7 6b 3d 36 a5 61 3d 43 8d 37 bc 7e 7c df bd
       0.057578165 0.055089198 -0.011203113 -0.10912417
000360 d2 0b a5 3d b4 80 c3 bd d3 89 97 bc 1a ed 9a bd
       0.08058895 -0.095460325 -0.018498337 -0.07564755
000370 92 6b 45 bb 7e 84 12 bd d7 b0 65 bd d2 9b 98 bd
       -0.0030123931 -0.035770886 -0.05607685 -0.07451595
000380 ec c8 b1 bd 12 6e ca 3d 9e 93 bf bd 68 07 37 3d
       -0.08680901 0.098842755 -0.093543276 0.044684798
000390 33 8f ff bd 7e 6d af bd e3 ad 57 3d ed ab b9 3c
       -0.12478485 -0.08565806 0.052656066 0.022664988
0003a0 f4 f7 d4 bd b2 68 ed bd 14 66 d9 bd 88 5e 8d bd
       -0.10398856 -0.11592235 -0.10615173 -0.06902796
0003b0 20 ac d3 bd 58 c5 04 be 20 4c d5 bd a6 cc 07 be
       -0.103355646 -0.12965906 -0.1041491 -0.13261661
0003c0 ec 28 ea 3c 29 e4 8a bd 82 0f 8d bc aa e8 a1 bd
       0.028583966 -0.06781799 -0.017219309 -0.07905705
0003d0 dd fd b9 3c d7 e4 c6 3d 62 a2 05 be 1b 30 68 3d
       0.02270406 0.097116165 -0.13050225 0.056686502
0003e0 0b 3c 39 bd e9 0c 1e 3c cf b6 b2 bd fb e2 39 3a
       -0.045223277 0.009646633 -0.08726274 0.00070910127
0003f0 06 59 8d 3d 3d 7a ef 3c df 0d 03 3d da 1c a8 3c
       0.069017455 0.029233092 0.03199565 0.02052157

bias f4 [32]
000000 dd 79 e1 3d 07 d4 1c be e9 d9 ca bd 5d e4 c1 bd
       0.11009572 -0.15315257 -0.09904844 -0.09467385
000010 90 bf ef 3c 97 40 be bd 3f 2f 22 bd 36 01 48 3c
       0.029266149 -0.09289663 -0.03959584 0.01220732
000020 fc a3 3b bc a1 8c 3d 3d b7 3b 1b 3e 8a 1e e9 bc
       -0.011452671 0.046276692 0.15159498 -0.028456945
000030 87 ab 39 bc 7d 50 d8 3d 1b 7b 86 3d 95 16 d6 3d
       -0.011332399 0.10562227 0.06566449 0.10453526
000040 33 54 1e bd e8 85 38 3d 1f b2 c8 3c 06 09 aa 3d
       -0.038654517 0.045049578 0.024498997 0.08302502
000050 bd 8f 03 be f3 72 8f 3c ee 2c 1d 3c 77 e8 c4 3d
       -0.128478 0.017510867 0.009593232 0.09614652
000060 c0 b5 87 3d 0c a6 9e bc c4 81 9f 3d ee 04 08 be
       0.06626463 -0.019366287 0.07788423 -0.1328313
000070 2e b1 5d 3c 98 96 46 bd 28 11 7e 3c d1 ca eb 3c
       0.013531012 -0.04848346 0.01550702 0.028783234

weight f4 [32, 32, 5, 5]
000000 29 1f 9e bc b2 c4 ef bb e3 49 a0 bc 15 43 c4 3c
       -0.019301968 -0.007317149 -0.019566482 0.023957768
000010 9d e5 06 bc c5 0f 04 bd 90 c1 61 3c 4b 56 68 ba
       -0.008233455 -0.0322416 0.013779059 -0.00088629563
000020 9c d3 c4 b9 38 20 dd 3c d3 75 c1 bc 65 42 f1 3c
       -0.00037541694 0.026992902 -0.023615753 0.029450605
000030 9e c4 33 3c 33 6a 61 bc a9 71 07 3d 40 42 f3 3c
       0.01097217 -0.01375823 0.03306738 0.029694676
000040 dc 97 ff 3b d3 33 ae 3b 1d 70 8b 3c f5 bd f9 3a
       0.0078000855 0.0053162365 0.017021233 0.0019053804
000050 23 e5 fe 3c 2b 9f 8b 3c 3b 00 17 bd e4 cd 13 bd
       0.03111512 0.01704367 -0.036865454 -0.036085024
000060 02 7b 9a bc 8e c1 e8 3c f7 4c d2 bc 25 fc 28 bc
       -0.018857483 0.028412607 -0.025671465 -0.010314022
000070 6d cf 5e 3c 83 67 58 3c 5c 04 e2 bc 76 4a d4 3c
       0.013599259 0.013208273 -0.02758997 0.025914412
000080 07 a4 74 3c 27 b3 11 bc 7b 45 03 3b 21 65 97 3c
       0.014931685 -0.008892811 0.0020030427 0.01848084
000090 16 be 27 3c 22 cd 19 3b 52 d2 25 3c 70 8c ee bc
       0.010238191 0.0023468216 0.010120945 -0.0291197
0000a0 76 cb 27 3d af 0d 74 bb fb ae c2 3c ac d0 15 3d
       0.04096552 -0.0037239601 0.023765078 0.036575958
0000b0 8e 6f 19 3d f9 35 1b bc 6d 02 75 bc 00 43 64 3b
       0.037459902 -0.009473317 -0.014954192 0.0034829974
0000c0 1b f3 b3 3c 99 3a 67 bb 30 ff fc bc df ea 2d 3b
       0.021966508 -0.003528273 -0.030883402 0.00265377
0000d0 59 51 86 bc 92 b1 b2 bc 57 75 bd bc a5 a9 90 3b
       -0.016396211 -0.021813188 -0.023127241 0.0044147545
0000e0 7e 23 bf bb cc 2d b8 bc 6a c0 db 3c bd 53 0f 3d
       -0.0058330884 -0.022482775 0.026825149 0.03499197
0000f0 d4 ed 9f bb 8b 5a e3 bc 42 06 db bc 67 3e 07 3d
       -0.0048806462 -0.027753135 -0.026736382 0.033018496
000100 bf 76 05 3b 26 06 93 bc 9d 36 ca bc 95 26 d0 bc
       0.0020364968 -0.017947268 -0.024684245 -0.025409022
000110 83 ce ea 3a 21 72 17 3c 10 c7 b2 bc b9 51 09 bd
       0.0017914328 0.009243519 -0.021823436 -0.033525202
000120 61 a7 a6 bc 1a bf e8 3c 41 ef 0f 3c 61 23 4b 3a
       -0.020343484 0.028411437 0.00878507 0.00077491073
000130 97 4d c9 3c af 8d 98 bc 4f 08 8b 3c 47 0f 87 bc
       0.02457313 -0.018622248 0.016971735 -0.016486777
000140 25 03 85 bc 8a a1 ad 3b ce 66 a5 3c 72 7e b9 3b
       -0.016236851 0.005298798 0.020190623 0.0056608254
000150 29 c9 af bc e4 50 24 3d 20 c1 23 3c 4f c8 de 3c
       -0.021458225 0.040116206 0.009994775 0.027195124
000160 dc 7d d8 bc f9 4c e3 bc 16 74 a7 3c 85 eb 27 3d
       -0.026427202 -0.027746664 0.020441096 0.040996093
000170 8e 60 12 3d 99 b7 88 bc 38 89 d6 3c df 7e 13 bc
       0.035736613 -0.016689109 0.026188478 -0.009002416
000180 61 66 6a bc 2e f3 74 bb a5 59 29 3d 7c 82 3b bc
       -0.014306636 -0.0037376392 0.041345257 -0.011444684
000190 54 88 57 3b 6e 93 fd bc 7d 82 cf bc 43 25 e0 bb
       0.0032887654 -0.030954089 -0.025330776 -0.0068403794
0001a0 14 e8 13 3c d6 83 e1 bc e1 05 e5 3a f2 53 89 3c
       0.0090275 -0.027528685 0.0017473066 0.016763661
0001b0 f0 e3 0a bd ad 6e 96 3c 94 09 8c bc 32 de a7 3c
       -0.033908784 0.018363321 -0.017094411 0.020491693
0001c0 c3 75 e8 bc b1 8b 59 bc ea 51 00 3d 2e e0 f3 bc
       -0.028376466 -0.013277934 0.03132812 -0.029769983
0001d0 95 98 78 3c 40 68 90 bc b5 02 57 3c 1d 63 95 bb
       0.015173097 -0.017627835 0.013123204 -0.0045589344
0001e0 a9 c4 34 3c d5 41 d0 bb d1 a0 6b bc 34 40 92 3c
       0.011033216 -0.006355504 -0.014381603 0.01785288
0001f0 3c 19 04 3c 24 4c cc bc 87 93 48 bc fd 18 99 bc
       0.008062657 -0.02493865 -0.0122422045 -0.018688673
000200 79 c1 f4 3b 1a fe cf 3c 3a de cc ba 3f 32 b9 3c
       0.007469353 0.02538972 -0.0015630194 0.022606967
000210 58 c3 96 3b 17 99 bf bc c3 87 f8 bc b8 d2 f6 bc
       0.0046009235 -0.023388429 -0.030338174 -0.030129775
000220 8f 6d b5 bc ab bc c6 3c 39 42 37 3b 04 e3 a7 bc
       -0.022146968 0.024259886 0.0027963056 -0.020493992
000230 0a 65 7e bb 4c 85 43 bb 8e 3f 7c bb 42 00 0a bd
       -0.0038817548 -0.002983409 -0.003849003 -0.033691652
000240 5a 8a 84 bc 31 91 4f bc 9a 73 3e 3b 53 6d c8 bb
       -0.016179252 -0.012668894 0.0029060603 -0.006116548
000250 00 ef cf ba fe f6 d3 bc 1b 2d bb bc 33 7b b4 bc
       -0.0015864074 -0.025874611 -0.022848656 -0.022031402
000260 26 e0 29 bd d4 2e 30 3c f0 ef 95 3b d5 1b 15 bd
       -0.04147353 0.010753352 0.004575722 -0.036403496
000270 ee 20 0b bd 76 c9 b2 3c 2d d8 6b bb a2 c7 8c bc
       -0.03396695 0.02182458 -0.0035987005 -0.017185036
000280 2e d0 7b 3c a7 85 a2 bc a2 d4 7b 3c 29 bb 07 3c
       0.015369458 -0.019839121 0.01537052 0.008284369
000290 20 5e 04 bc 27 39 d1 3c 1b 6c 50 bc 7c f3 86 bc
       -0.008079082 0.025539948 -0.012721087 -0.016473524
0002a0 49 71 1e bd b0 c7 1a bc b7 1d 04 bc 8e 4b 67 bc
       -0.038682256 -0.009447023 -0.008063725 -0.014117135
0002b0 a4 fa 1e bb d4 b0 2a bc 03 70 cf bc c8 26 c7 3b
       -0.002425828 -0.010418136 -0.025321966 0.006077621
0002c0 f3 43 17 3d d3 cb b1 3b 8c fc 25 3d db 6f 90 bb
       0.036930036 0.005425909 0.04052405 -0.0044078655
0002d0 eb 95 0b 3d a1 4d 9e bc 19 3c da 3c 44 8c 70 3b
       0.03407852 -0.019324126 0.026639985 0.0036704699
0002e0 94 5d 59 bb fc 1f 8c 3c 75 28 c7 bc 71 07 01 3c
       -0.003316735 0.017105095 -0.024311284 0.007875309
0002f0 79 7f 0c 3c a2 b2 8f 3c 3e 1b 58 3c 95 af 76 bc
       0.008575314 0.017541233 0.013190089 -0.01505651
000300 94 2f b2 bc 5c 47 a9 bc 59 fc dc bc f5 99 bd 3c
       -0.021751203 -0.02066391 -0.026975797 0.023144701
000310 ae 4d 20 3d 17 fd 83 3b 63 85 f4 bb ed 44 f4 bc
       0.03913658 0.0040279734 -0.00746219 -0.029818023
000320 28 7b 75 bc 8e 78 eb bc 3b 2e 83 bc ef 2d 01 3c
       -0.014982976 -0.028744008 -0.016013255 0.007884487
000330 cb a2 c5 bc 3b a5 11 3c a0 4a cf 3c ac 1e 8b 3c
       -0.024125477 0.008889492 0.025304139 0.016982399
000340 ae 1e df bc 92 43 95 bc 91 00 ff bb 2d dc 72 bc
       -0.027236309 -0.018220697 -0.00778205 -0.014823002
000350 4d 98 35 bc 05 c8 e4 bc 48 12 ab bc 68 e8 88 3a
       -0.011083675 -0.027927408 -0.02088274 0.0010445239
000360 5e c7 43 bc ad 05 c5 3a 3d 22 61 3c 26 8c 3b 3b
       -0.011949388 0.0015031599 0.013741073 0.002861747
000370 e2 08 4c bc d3 fc 07 3d 5c 0c d5 bc 18 99 0a 3d
       -0.01245329 0.033200096 -0.02600687 0.033837408
000380 f4 56 8e bc 20 fb 7f bc 50 8b 04 bd 49 0d 69 bc
       -0.017375447 -0.015623838 -0.03235942 -0.014224359
000390 cf 6a 9a 3c 5d a1 c1 bc d3 96 16 bd 3a 1c 08 3d
       0.018849758 -0.023636514 -0.03676493 0.033230044
0003a0 f6 ad 86 bc f4 9f cf bc 24 0c 25 bc 54 87 09 bd
       -0.016440373 -0.025344826 -0.010073695 -0.033576325
0003b0 79 01 08 bd 95 27 0c bb 55 ff 0e bd fa 31 87 3c
       -0.03320453 -0.0021385897 -0.034911472 0.016503323
0003c0 5b 6d ff 3c 79 b9 8d bc a6 ad e1 bc fe 09 f6 bc
       0.031180074 -0.017300354 -0.027548622 -0.030034062
0003d0 dc 84 b4 3c f8 4a 24 3c dd e9 2d b9 01 69 f6 bc
       0.022036009 0.01002764 -0.00016585687 -0.030079367
0003e0 6b 2e 0e 3d 3e 5e e5 bc 46 68 ab bc 83 0b 1d bd
       0.034712236 -0.02799904 -0.020923745 -0.038341057
0003f0 6e f2 e0 bc ad c3 2e bd 3a 9b f4 bb c0 41 98 bc
       -0.02745935 -0.04266708 -0.0074647935 -0.01858604

bias f4 [32]
000000 68 a2 97 bc 74 a6 fc bb e2 eb 1d 3d 6b ba b3 bc
       -0.018510059 -0.0077102724 0.038555034 -0.021939477
000010 19 3a 6d 3d bb 5c 3e bd 90 cd dd bc 0c e9 6b 3c
       0.057916734 -0.046475153 -0.027075559 0.014398824
000020 5a a0 33 bd 6c 64 2f bd 1a 8c f1 bb f5 db 84 bc
       -0.043854095 -0.04282038 -0.0073714377 -0.016218165
000030 c6 d5 05 bd 8f 6e 0e 3d f3 f1 9a bc db 6f 42 3b
       -0.032674573 0.034773406 -0.018914199 0.0029668722
000040 6a d0 d1 39 b6 59 4b bc 24 39 ce 3c 2c 19 b4 3c
       0.00040018867 -0.0124115255 0.025173731 0.02198466
000050 d8 9a a8 3a 97 77 9f 3b 80 e1 c9 3c e7 f9 c1 bc
       0.001286353 0.004866551 0.02464366 -0.023678733
000060 60 c9 8f bb 4c 0a 38 bc b1 ab e8 3c 70 22 23 3c
       -0.0043880194 -0.011232924 0.028402181 0.009956941
000070 0b b5 ba bc c4 a4 b4 bc f1 5e 44 bc d5 ca 32 bc
       -0.022791406 -0.022051223 -0.011985526 -0.010912617

weight f4 [64, 32, 5, 5]
000000 61 71 07 3d e8 1e 08 3d 8d b0 0e bd 5c ca 29 bc
       0.03306711 0.0332326 -0.03483634 -0.010363188
000010 b0 eb 86 bc f3 22 90 3b ff ad e1 3c 2b 8d e7 3c
       -0.016469806 0.0043986975 0.027548788 0.028265556
000020 c6 81 bf 3c 2d ac 00 bd 04 6c 80 3c 8c d7 ae bc
       0.02337731 -0.0314142 0.015676506 -0.021343015
000030 f0 42 00 3d c7 c8 c2 3b ac df dd bc ac 49 8f 3c
       0.031313837 0.0059443447 -0.027084194 0.017491184
000040 47 36 53 3c 81 bc 01 bc 6a 69 a1 3b 53 4f 0d bd
       0.012891359 -0.007918478 0.0049258964 -0.034499478
000050 bd 9a b2 3c 7d b1 14 bd 9f 46 ab 3c 0a 70 ef ba
       0.0218023 -0.03630208 0.020907698 -0.0018267643
000060 27 da 8f 3c 78 21 8d 3c 3b 76 ab bc c7 3d 13 3d
       0.017560078 0.017227873 -0.0209304 0.035947587
000070 01 d4 b5 bb 39 62 39 bc c4 ee db bb 5f df 00 3d
       -0.0055489545 -0.011314922 -0.0067118127 0.031463023
000080 84 96 9f bc 9f 8a 8c 3c 96 c1 eb bc 34 30 e3 3c
       -0.019480951 0.017155943 -0.028778832 0.027732946
000090 1e 0b d6 bc 2d 43 dc 3c de c1 54 bc 9d 29 12 bd
       -0.026128348 0.0268875 -0.012985675 -0.035684217
0000a0 a5 87 c2 3c e8 37 52 3b 77 e5 d1 3c 5b 42 63 bc
       0.023746321 0.003207678 0.025622113 -0.013870801
0000b0 a9 d2 23 3c 19 3a b6 bb 3e 47 8c 3c 40 00 56 3b
       0.009998956 -0.005561125 0.017123815 0.0032653958
0000c0 36 18 e7 bc eb 37 00 bc 6d 1a f5 bc 2c 83 0f bc
       -0.028209787 -0.007825832 -0.029919827 -0.008759301
0000d0 6f 54 46 3c ab 92 40 bc 92 6c ee 3c e2 88 9a bc
       0.0121050915 -0.011753718 0.029104505 -0.018864099
0000e0 f0 b7 19 3d 0d 27 85 3c 92 7e 01 bd 3e 9b 15 3d
       0.037528932 0.016253972 -0.031614847 0.036525004
0000f0 ca 8d 3d 3b f9 f4 cc 3c 71 5b 68 3c ea 24 d4 3b
       0.0028923624 0.025019156 0.014181958 0.006474127
000100 42 a7 b5 bc 24 7f 10 3d 40 4f 6a bc f6 0e d1 3c
       -0.022174481 0.0352775 -0.014301121 0.02551983
000110 85 77 0e bd c3 4a 05 3d 03 e4 d0 3c 4f 85 6b bc
       -0.03478195 0.032542 0.02549935 -0.014375045
000120 82 cd 27 bc 75 d8 c4 3a 96 e8 33 3a 34 ae e2 3c
       -0.010241868 0.0015018123 0.0006862966 0.027670957
000130 27 1b 86 3c 67 de a0 bc 6f 25 ed bc 0b b2 9f bc
       0.01637037 -0.0196373 -0.028948514 -0.019494077
000140 9c 5a ca bb 9a 4d 24 3c a2 41 df bb 78 8a c6 3b
       -0.0061753523 0.010028267 -0.006813244 0.006058987
000150 c2 b7 d3 3c df 02 86 3c 6f 56 f9 39 c7 82 d5 bc
       0.025844458 0.01635879 0.0004755738 -0.026063336
000160 ff c6 0d bd 46 bf 16 bc 47 a0 6f bc d9 8a 51 bc
       -0.034613606 -0.009200877 -0.014625615 -0.0127894515
000170 6c 83 20 bc ee f4 1f bd cc 05 e3 ba 5e 68 dc 3c
       -0.009796958 -0.039051943 -0.0017320453 0.026905235
000180 7f 5b 00 bd c6 8f 0b bd 02 e2 7b bc 70 0a f1 bc
       -0.031337257 -0.03407266 -0.015373709 -0.029423922
000190 29 30 4c 3c fe 00 dd ba 0d 19 20 bc 77 e4 d0 3c
       0.012462654 -0.0016861258 -0.009771598 0.025499566
0001a0 6a af 2c bc 3c 66 d2 3b 55 76 e0 3c e9 28 f3 bc
       -0.010539869 0.0064208787 0.027400175 -0.029682593
0001b0 cc 69 e9 3c 34 bc 98 bb c5 8f 56 bc a6 d2 2d 3c
       0.02849283 -0.0046611074 -0.013095801 0.0106093045
0001c0 bc 99 d0 3c d0 15 36 3c 25 59 eb bc b6 b4 df bb
       0.025463931 0.011113599 -0.02872903 -0.0068269623
0001d0 e7 b7 a7 3b e7 21 c3 bc 9c be 05 bd 5a 7b af bb
       0.0051183584 -0.023819877 -0.032652482 -0.005355281
0001e0 a5 9e a6 bb f5 85 2b bb 43 45 9d 3c 15 b3 5d 3c
       -0.00508483 -0.0026172374 0.019198066 0.013531466
0001f0 f5 2f eb bc c0 18 4f 3b 7e 66 98 bc 0c 82 ec 39
       -0.028709391 0.0031600446 -0.01860356 0.0004511032
000200 be f2 08 bd 0f 3a 0c 3c c0 cc d8 3b 29 2a 97 3b
       -0.033434622 0.008558764 0.006616205 0.00461318
000210 a5 b1 fa bc 7c d0 a0 bc 33 d7 26 3b 0e 08 8c bb
       -0.030602286 -0.019630663 0.0025457859 -0.004273421
000220 04 79 bc 3c db bf 12 bb 9a 3f 3a bc 19 32 d5 bc
       0.023006923 -0.0022392187 -0.011367703 -0.026024865
000230 c6 1c bb bc bf fe ff b9 31 d4 fd 3c 99 9c de bc
       -0.022840869 -0.0004882719 0.03098497 -0.027174281
000240 14 0f a7 bb 2a 77 6a 3b 22 74 df bc c1 ab 72 bb
       -0.005098233 0.0035776594 -0.027277056 -0.0037028643
000250 47 94 a5 3c e1 1d ff bc 3d 33 70 bc 22 ed ae 3b
       0.020212306 -0.031142177 -0.014660654 0.005338327
000260 9c 63 07 bd c3 cc a3 bc a0 2b 9e 3c 6d b8 db bc
       -0.03305398 -0.019995099 0.019307911 -0.02682134
000270 84 7c 8f 3c 58 ec f4 bb f0 02 98 bc 00 71 be bc
       0.017515428 -0.0074744634 -0.018556088 -0.023247242
000280 78 ad a4 3c f5 b4 92 3b b8 61 15 bc 03 2d bf 3c
       0.020102248 0.004477138 -0.009117536 0.023336893
000290 7c 86 f6 3c 06 cb b9 3c 62 15 81 bc ae 7a ba bc
       0.030093424 0.022679817 -0.015757266 -0.022763576
0002a0 b8 d1 00 bd 2e e0 77 3c 28 9f 50 3c cc 1c de bc
       -0.031450003 0.015129132 0.012733258 -0.02711334
0002b0 47 ae f3 3b 2c 56 8e bb 84 c1 8e bc f4 0d c1 bc
       0.007436547 -0.0043437686 -0.01742626 -0.023566224
0002c0 19 3c e2 bb 8f e7 89 3c 0b d1 d2 bc f5 95 0b 3d
       -0.006904137 0.016834049 -0.025734445 0.034078557
0002d0 1d 0c e4 3c 64 0c ab bc 81 eb b0 3b b7 56 9b 3c
       0.027837807 -0.020879932 0.005399168 0.018962247
0002e0 ca ee b1 3b 63 7d 5c bc fe a7 ed bb b7 7a 86 bc
       0.005430077 -0.013457629 -0.0072526922 -0.016415937
0002f0 90 0d ab bc 61 3e 68 bc 79 3a 7a 3c 2f 79 9c 3c
       -0.02088049 -0.014175029 0.01527273 0.019100754
000300 38 59 6d bc ac 6b 74 3b b0 bf c4 bc 6b bd 51 bc
       -0.014486603 0.0037295623 -0.024017185 -0.012801508
000310 49 b8 4c 3c 6a 07 8e bb 51 df ab 3c c6 a4 f1 b8
       0.012495109 -0.00433438 0.020980509 -0.00011522467
000320 da 45 29 3a 0f 71 b8 bc fd 8b 00 bc b5 7f f0 3c
       0.0006457247 -0.022514848 -0.007845876 0.02935777
000330 3c d2 b6 bc 17 e1 e1 3c 00 54 96 3c a8 58 4c bc
       -0.022317044 0.027573152 0.018350601 -0.012472309
000340 6d 68 cc bc 30 88 8e bc fb 68 e9 3a 22 85 be bb
       -0.024952138 -0.017398924 0.0017807776 -0.0058142105
000350 ea 4f 9c 3c 13 18 d6 bc ec b0 d3 bc 16 f7 1c bc
       0.019081075 -0.026134526 -0.025841199 -0.009580394
000360 9f 18 df b5 a9 1d ae 3c 18 2a a2 bc 26 37 4c 3b
       -1.662196e-06 0.021254377 -0.019795462 0.00311608
000370 89 25 13 3c 65 73 e5 bc ea 24 0d 3d dc be 0f 3c
       0.008981117 -0.028009126 0.034459032 0.008773532
000380 06 98 09 3c df ed a1 3b f6 88 8d bc 53 74 93 bc
       0.008398062 0.0049416865 -0.017277222 -0.017999804
000390 ba 9c 23 3a da 3a 0d bd 32 d2 48 3c 81 bf fb 3b
       0.00062413106 -0.034479953 0.012257146 0.007682741
0003a0 f5 07 64 bb a2 61 f1 3c 07 46 7c bc 38 c3 00 bd
       -0.0034794782 0.0294655 -0.015397555 -0.031436175
0003b0 69 a4 2d 3c df 6d 4f 3c 91 ea 5e bb 6c 3b 1c bd
       0.0105982805 0.012660473 -0.0034014324 -0.038142607
0003c0 62 22 c8 3c 9f 6a 88 bc 27 c4 e0 3c 04 03 57 bc
       0.024430458 -0.016652403 0.027437283 -0.013123278
0003d0 ef 3e 7c bc 50 40 79 3c 24 de 0b bd e0 f2 c7 bc
       -0.015395864 0.015213087 -0.034147397 -0.024407804
0003e0 47 06 05 3d 85 2c 47 ba ac c4 08 3d 28 e4 a3 3b
       0.03247669 -0.00075978815 0.033390686 0.0050015636
0003f0 21 b6 d5 3b ba ea c3 bc 70 05 8d 3c 1e 7d 93 3c
       0.0065219556 -0.023915637 0.017214507 0.018003996

bias f4 [64]
000000 a1 9f 84 bc ce 63 45 3c 09 ce 7f 3c 5d af 1a bd
       -0.016189398 0.012047721 0.015613087 -0.037764896
000010 42 86 e2 bb db 85 6a 3c 70 98 cb bb fd 1f b5 3c
       -0.0069129774 0.01431414 -0.0062132403 0.02210998
000020 bd 64 c9 bc 5e 4b 24 bd 08 8b 19 3c 03 c8 bf bc
       -0.024584169 -0.04011094 0.009371527 -0.023410803
000030 31 d1 1e b8 50 9a 15 bc d1 a6 d0 3c ae 2e b5 3c
       -3.786496e-05 -0.009131029 0.02547017 0.022116985
000040 e3 3b d8 3b 60 37 2e 3d af 97 01 3c e9 0b 94 3c
       0.006598936 0.04253328 0.007909699 0.018072085
000050 b4 a9 b3 bc 5d 33 0d 3d 09 f5 0d bb 54 df d5 3a
       -0.021931507 0.034472812 -0.0021660945 0.0016317167
000060 8d ce 2b bc 1b 12 12 3c 14 c8 3a bc 64 3d 0a 3d
       -0.010486257 0.0089154495 -0.011400241 0.033749953
000070 f3 a9 77 3c b0 43 ed 3c 2a ea 0d 3d 9e 68 f3 bb
       0.015116203 0.02896294 0.034647144 -0.007428243
000080 95 43 77 bc f5 5b 1d bd 75 aa ba bc 84 0f e8 3c
       -0.015091796 -0.038417775 -0.022786358 0.02832771
000090 ee 68 96 bc 8b 16 2b 3c 6a 53 04 bd 50 7c b2 3b
       -0.018360581 0.010442386 -0.032306112 0.005446948
0000a0 a1 89 87 3c a2 28 4c 3b 90 80 43 bb e2 c8 c8 3c
       0.016545119 0.0031152149 -0.0029831268 0.02450985
0000b0 a5 97 12 3d 4a 2e 34 bc da a6 fc 3c 6c 3a b7 bb
       0.03578915 -0.010997364 0.03084128 -0.005591681
0000c0 82 20 74 3a 07 9e 21 bd 7c ee 27 3c da 21 93 bc
       0.00093127054 -0.039457347 0.01024973 -0.017960478
0000d0 55 4c ab bc 1e e0 10 3d f3 05 f5 bc 6a 19 fc 3b
       -0.020910421 0.035369985 -0.029910063 0.0076934593
0000e0 35 26 b0 bc b9 52 85 bc da ff 1a 3c 5d 2d b7 bc
       -0.021502594 -0.016274797 0.009460414 -0.022360498
0000f0 2b 9c 0d bb f9 5e a3 bc 01 50 86 3c 17 0a 2c bc
       -0.0021607976 -0.019942747 0.01639557 -0.0105004525

weight f4 [64, 1024]
000000 25 92 9a 3c 80 f9 10 3c 89 41 06 3c 5e 2f 6e 3c
       0.018868515 0.008848548 0.008194336 0.01453766
000010 88 2f 68 3c 6f d0 8c bc e3 67 66 3c 0d c5 ef bc
       0.014171489 -0.017189233 0.014062854 -0.029268766
000020 64 f5 9f bc ae 59 26 bb fd 27 f6 bb 0b 4a 70 3b
       -0.019526191 -0.0025383043 -0.007512091 0.0036665227
000030 53 c0 fa 3a 16 20 a2 3c a4 9e 04 bd ff 2c 05 bd
       0.0019130803 0.01979069 -0.032377854 -0.032513615
000040 39 48 78 bc e7 d7 f2 ba ef 6b 86 ba 83 f5 35 3b
       -0.015153938 -0.0018527479 -0.0010255555 0.0027764745
000050 bb b4 47 bb 7c 04 d3 bc 7e e6 4c 3c fd a0 26 3b
       -0.0030472714 -0.025758974 0.0125061255 0.0025425546
000060 98 2d d3 bc 4b a7 a7 bc 34 fc 90 bc 2e c0 88 3b
       -0.025778577 -0.020465514 -0.017698385 0.0041733
000070 57 31 a9 bc c5 dc 4e 3c 9c c6 73 3c 0d db 26 bc
       -0.02065341 0.012625878 0.014878895 -0.010184062
000080 12 90 bf bb 0a c1 b7 3c 65 ed a1 3c 3c 0c fb 3b
       -0.005846032 0.022430915 0.019766519 0.0076613706
000090 c1 63 a2 3c cd 3a 9c 3c cf 7b b7 3c cf 8c b9 bc
       0.019822957 0.019071007 0.022397904 -0.02265015
0000a0 d4 a7 aa bb e8 14 a3 3c 98 2d be bc 85 3e 23 3c
       -0.005207995 0.01990743 -0.0232151 0.009963636
0000b0 14 c3 f7 bc 09 ea bf bc 4a 7e 78 bc 4e 27 10 ba
       -0.030244388 -0.023427026 -0.015166828 -0.0005499021
0000c0 22 19 01 bd ee 0f 5b 3c de 78 90 bc a7 74 9b 3c
       -0.03151811 0.013370497 -0.017635759 0.018976523
0000d0 36 a0 59 bc f5 bf 8e 3c cf a0 aa bb 55 d3 a3 bc
       -0.013282826 0.017425517 -0.005207158 -0.019998232
0000e0 77 84 af bb 5a 00 96 3c f7 83 b2 bc 09 8f ed 3b
       -0.005356367 0.018310715 -0.021791441 0.007249717
0000f0 12 9b 6a bb 1f ad ab 3b bd 9c eb bc 46 f7 bd bc
       -0.0035797996 0.0052391435 -0.028761262 -0.023189198
000100 8e 64 f5 3a 97 0b b1 bc f2 b1 b5 3c 6e ef 22 bc
       0.0018721984 -0.021611972 0.022179577 -0.00994478
000110 1b 27 98 bb e0 36 35 3c 03 84 55 3c a1 82 d6 bc
       -0.0046433336 0.0110604465 0.013031962 -0.026185336
000120 69 53 9a 3c 91 6e 20 bc 7b 56 49 bb ff ca 7a bc
       0.018838601 -0.009791986 -0.0030721712 -0.015307187
000130 90 af ca bc 04 74 c1 3c dd 33 41 3c 04 d8 2d bb
       -0.024741918 0.02361489 0.01179215 -0.002652646
000140 cc 25 35 3c 02 57 af 3c 67 3a 2d bc 2e aa 8f 3b
       0.011056375 0.021403793 -0.010573006 0.0043843007
000150 92 7a b8 bc c1 d5 1d bc 70 60 6b bc 1c de eb 3a
       -0.022519384 -0.009633482 -0.014366254 0.0017995271
000160 9c d6 f8 3c 86 4c 07 ba 0a cb 79 3c 5c 80 f8 bc
       0.030375771 -0.0005161244 0.015246162 -0.030334644
000170 14 63 4b 3c 13 10 88 3b ed 95 d0 bc 9d 82 61 3c
       0.012413759 0.004152307 -0.025462115 0.013764051
000180 c5 51 b8 3b d9 2e bd 3b e0 a7 d5 bc 2a 2e 01 bb
       0.005624982 0.005773407 -0.026081026 -0.0019711354
000190 16 37 75 bc 02 7a b4 3c c1 97 9a bb 49 27 d1 bc
       -0.014966747 0.022030834 -0.0047177975 -0.025531428
0001a0 aa c1 e3 3c 4f 02 cf bb 29 5f df 3c 10 2f 66 bb
       0.027802307 -0.006317414 0.027267056 -0.0035123266
0001b0 c1 8a b9 3c 6a 57 9d 3c d8 b9 8a bc d6 f9 05 3d
       0.02264917 0.019206721 -0.01693432 0.032708965
0001c0 e1 ab 7d bb 9f 9c df 3b f3 01 ab bb a9 0f 2b 3c
       -0.0038707184 0.0068240906 -0.005218738 0.010440745
0001d0 0d 2b 8d bb e0 7b 2e 3c e7 7a dc bb e6 1e f9 bb
       -0.0043081106 0.010649651 -0.0067285183 -0.0076025603
0001e0 f8 50 c1 bb f7 22 fd bb ae 31 88 bc d9 f9 e3 bc
       -0.005899545 -0.0077251154 -0.016625252 -0.027829098
0001f0 54 f6 6d 3c fd 4b ed 3c b5 93 86 bb 30 f2 b0 ba
       0.014524061 0.028966898 -0.0041069635 -0.0013499912
000200 e6 24 42 3c 25 be 99 bc c8 d4 a4 3c fa 82 ce 3c
       0.011849618 -0.018767426 0.020120993 0.025208939
000210 8f 9f f7 3c 1c 02 04 3d 37 da e3 3c c6 cd 34 3c
       0.03022745 0.032228574 0.027814014 0.011035388
000220 c1 4b 18 bc 52 db 6e bb 16 47 9c bb 1b 9d 15 bd
       -0.009295405 -0.0036446643 -0.0047692163 -0.03652678
000230 ef 31 8f 3c 0e 66 b1 3c 28 67 14 3c 57 60 e2 bc
       0.017479865 0.021655109 0.0090577975 -0.027633829
000240 2e 82 ac bc ce 10 d9 3c 17 fe b1 3b 6b e6 ec bc
       -0.021058168 0.02649727 0.005431901 -0.028918466
000250 c3 db 1d bc 80 a6 cc bc a5 30 fb bb b5 11 91 3c
       -0.009634915 -0.024981737 -0.007665711 0.017708639
000260 a5 ec b8 bb 4a d9 2b 3c 69 33 b4 bc 5c a3 08 bd
       -0.0056434446 0.0104888175 -0.02199717 -0.033358917
000270 08 86 13 bc ad 68 36 3c ff 6a 21 3c 0f f6 c5 3c
       -0.0090041235 0.011133355 0.00985217 0.024165181
000280 1a e1 dc 3b c2 65 4a bc bf 92 60 bc 81 e5 ce b9
       0.0067407014 -0.0123533625 -0.013706862 -0.00039462376
000290 76 ce f8 bc 82 1c 19 3b 7e de d8 bc 64 c2 15 3c
       -0.030371886 0.002336294 -0.02647328 0.009140585
0002a0 c2 45 eb 3c c8 5d aa bc 8e 55 be 3c ad cd 86 bb
       0.028719787 -0.020796672 0.023234155 -0.004113874
0002b0 79 c5 e3 3c ad 41 57 bc 1c 37 28 bc 8a 8a ac 3b
       0.027804123 -0.013138217 -0.010267045 0.0052655386
0002c0 38 2f 31 3c 5d 42 41 3c 52 69 e5 3c b7 03 ce bc
       0.0108144805 0.011795607 0.028004322 -0.025148256
0002d0 dd 41 be 3c d2 4b 25 3c e9 98 a8 3c a0 ad cb 3c
       0.023224765 0.010088878 0.020580726 0.024863064
0002e0 79 41 7a bc d3 07 6f 3c cb 59 97 3c 55 dd e1 3b
       -0.015274399 0.014589268 0.018475434 0.00689284
0002f0 d3 21 a7 bc 19 47 ba bc 80 d5 6b bc 3a 36 ad 3b
       -0.02040187 -0.02273898 -0.014394164 0.0052860053
000300 4f 25 28 bc ef 27 a4 bc 7d d1 8b bb e9 dd ba bc
       -0.010262801 -0.020038573 -0.0042669163 -0.022810893
000310 ee a0 df bc 75 ee 44 3a 5a e9 8b 3c e0 8b e0 3b
       -0.027298417 0.00075123395 0.017079044 0.006852612
000320 44 bc 5c bc dd 7e 08 bd b0 0b 6d bb aa 05 10 bd
       -0.01347262 -0.03332411 -0.0036170296 -0.03516165
000330 5a 3c 01 3d 62 3c 9c bc 4d 9e e1 bc ff 84 cd bc
       0.031551696 -0.019071762 -0.027541304 -0.025087832
000340 6e f4 c8 3c 59 7c 43 bc 0b f8 71 3a a1 9d 8d bc
       0.024530616 -0.011931502 0.00092303817 -0.017287077
000350 55 b4 31 3c 6e a6 8d 3c 0a b9 19 bc 5c d3 b2 bb
       0.010846217 0.017291274 -0.009382496 -0.005457325
000360 d0 8e d6 bc d2 4b de bb 83 d8 9e bc f6 f9 1e 3c
       -0.026191145 -0.006783941 -0.01939035 0.00970315
000370 da e5 a4 bc b6 3e b1 3c 95 c0 78 ba f2 25 6f 3c
       -0.020129133 0.021636348 -0.0009489146 0.014596449
000380 65 a1 8a 3b c6 3a 8c 3c a4 f7 f2 ba e2 31 9f bb
       0.0042306655 0.01711787 -0.0018536937 -0.0048582414
000390 74 9f ed bc 28 c9 c3 bc 38 4a 6b 3b 4b 2f aa 3c
       -0.029006697 -0.02389963 0.0035902392 0.020774504
0003a0 80 d7 e1 bc 3d 7f f4 3b 64 c1 b2 ba 04 89 87 bb
       -0.027568579 0.007461457 -0.0013637957 -0.0041362066
0003b0 62 d9 b2 3c 26 02 21 3c 8e 7f d6 3b eb eb d4 bc
       0.021832172 0.009827172 0.0065459674 -0.0259914
0003c0 1c c2 0f 3c e3 3c b2 3c 25 fc a5 bc de c6 30 3c
       0.008774307 0.021757549 -0.020261833 0.010789601
0003d0 f6 dd f0 3c 37 7a 6a 3c fc f8 cf 3c 27 f8 c7 3c
       0.029402714 0.014311365 0.02538728 0.02441032
0003e0 01 b9 c8 bc 15 4f e9 3a cd fa ee 3c c5 d5 c9 3c
       -0.02450228 0.0017800058 0.029172326 0.024638066
0003f0 35 4d a3 3b a5 d4 d9 3a 3d ce b4 bc 03 9c 66 bc
       0.004983569 0.0016619159 -0.022070998 -0.014075282

bias f4 [64]
000000 a5 79 a7 3c b8 1d 50 3b d5 67 0f 3d 7b 8d 08 bc
       0.020443747 0.0031755995 0.03501113 -0.008334513
000010 39 5c b1 3c 15 1c 9a 3a c5 ab c3 3c 4e 6a 15 3a
       0.02165042 0.0011757637 0.023885617 0.00056997396
000020 79 65 7a ba 61 82 de 3c 08 44 df bc 7f 24 2c bc
       -0.0009551864 0.027161779 -0.02725412 -0.010506748
000030 1f a7 bc 3b a0 85 b3 bc 96 b0 ec 3c aa 8c 66 ba
       0.005757227 -0.021914303 0.028892796 -0.0008794764
000040 de fd 28 3d 1d 6c d1 bb 11 b3 44 bc 02 cb 71 bc
       0.04125773 -0.006391062 -0.012005583 -0.0147578735
000050 03 b2 90 bc a7 a4 ce bc 0b 94 33 bc 6f 1c 27 bc
       -0.017663008 -0.025224997 -0.010960589 -0.01019965
000060 a0 59 67 3d f9 38 bd 3c 48 77 3f bc 44 b9 ae bb
       0.056481957 0.023098456 -0.011686154 -0.005332144
000070 b3 a3 f8 3c 53 09 92 bc 93 1b 62 3c 57 6a 95 bc
       0.030351495 -0.017826712 0.0138005195 -0.018239183
000080 66 69 10 3d 2e dd d3 3c 88 fb 20 bc 5b c6 0f bb
       0.035256766 0.025862303 -0.009825595 -0.0021938297
000090 59 62 38 bb 73 79 e2 3b 31 fb 0f bb 65 48 0c bc
       -0.0028134792 0.0069114505 -0.002196979 -0.008562182
0000a0 f2 03 c4 bc 75 22 02 3d 95 34 e4 3b 63 28 84 bc
       -0.023927663 0.031771142 0.006964276 -0.01613254
0000b0 5c 32 ba 3b eb a9 28 bc 78 c3 99 bc 1b ad 96 bc
       0.005682273 -0.010294418 -0.018769965 -0.01839309
0000c0 0e 2e bd ba 2b 1f 97 3c 4a e6 0a bd 14 11 e8 3c
       -0.0014433281 0.01844748 -0.033911027 0.028328456
0000d0 d7 a5 93 bc b4 08 21 3c f6 2f 59 3c 01 2f 20 bd
       -0.018023415 0.009828735 0.013256064 -0.039107326
0000e0 c4 dc 4e 3c 5a e9 ad 3c ec d6 00 3d 42 6f af bc
       0.012625877 0.021229435 0.031454965 -0.021415357
0000f0 bb 45 13 3d 97 4d 6d 3c bd e0 27 b9 49 0d 6d 3c
       0.035955172 0.014483831 -0.00016010083 0.014468499

weight f4 [10, 64]
000000 aa c3 b6 bd 90 ac a6 b8 6c 16 02 be e4 db 89 bd
       -0.08924039 -7.947639e-05 -0.12703866 -0.06731394
000010 76 b2 60 3c 82 f3 a4 3d b2 a9 e0 bd c4 0f 1a bd
       0.013714423 0.08054258 -0.10969867 -0.03761269
000020 e4 c6 bf bd 9a fc bf bc a1 7a 4f 3c 11 bd d0 3d
       -0.09364107 -0.02343588 0.012663514 0.101923116
000030 88 cf 19 bd 4a 3a 9a 3c 07 25 c2 bc 11 72 fe 3d
       -0.037551433 0.018826623 -0.023699297 0.124241
000040 70 4c e8 bd e9 b3 12 3d f7 49 21 bd c6 26 b3 3d
       -0.11342704 0.035816107 -0.03937718 0.0874763
000050 b6 65 9f bd 92 3f f5 3d 8b 8d 39 3d d4 bc 0d 3d
       -0.07783072 0.11975016 0.045301 0.03460391
000060 9f 85 05 be f7 49 bd bd c2 26 96 3b 38 c2 5e 3d
       -0.13039254 -0.09242623 0.004582257 0.05438444
000070 ac ae b4 bd b6 90 ad 3c 9e 90 d8 3b 54 e9 cc 3d
       -0.088223785 0.021187168 0.0066090366 0.10005441
000080 43 be 0c be 2d 90 2f bd 78 08 d2 bd 01 23 84 bd
       -0.13744454 -0.042862106 -0.102555215 -0.06451989
000090 df 3e df bd f2 61 e1 bb d7 46 bd bd b6 a6 19 be
       -0.109006636 -0.006878131 -0.09242027 -0.15005001
0000a0 6e 61 ea 3d 11 d7 d0 bd a2 1e ea bc 08 98 e4 3d
       0.114443645 -0.10197271 -0.02857906 0.1116181
0000b0 f3 60 d6 bb 92 31 84 bd 68 93 e5 3d b6 0d 0d be
       -0.006542319 -0.06454767 0.11209756 -0.13774762
0000c0 9b b9 02 bd f3 38 67 3d 44 c0 92 bc 7b d7 7f bd
       -0.03191529 0.056450795 -0.017913945 -0.062461358
0000d0 fb 34 89 3d ec 9b e9 bd ab 3d 0f bc 79 60 df 3d
       0.06699558 -0.11406693 -0.00874273 0.109070726
0000e0 ec 09 31 bd b4 81 b4 bd 1f 20 ad bd 2b e2 a6 3d
       -0.043222353 -0.088138014 -0.08453392 0.08148607
0000f0 7c 8e 9a bb b8 fe 5b 3d b0 8a 66 3d c3 d2 37 3c
       -0.0047166925 0.053709716 0.056284606 0.011219683
000100 15 7e 09 be df 50 7a 3b 34 d6 56 bc 14 8f 01 3c
       -0.13427003 0.0038195176 -0.013112593 0.007907648
000110 bd 3c fc bd d9 a3 05 3e 9d 21 9b 3c 98 65 fd bd
       -0.123162724 0.13050784 0.018936926 -0.12372893
000120 2a 5f 41 3b 8e 0b a0 3d 60 a6 f9 bd 8d 69 11 3d
       0.0029506185 0.07814704 -0.12189937 0.03550105
000130 6c 7f 0c be 73 00 07 3e b1 db c2 bd 22 5b 91 bd
       -0.13720483 0.13183765 -0.09514559 -0.0709746
000140 25 bc f9 3d ed 9c 8d bc ac 75 4a 3a c2 2b 99 3d
       0.12194089 -0.017286742 0.0007723223 0.07479049
000150 04 11 f0 bd 26 88 02 be d6 51 b5 3d ce 37 d7 bc
       -0.117219955 -0.12747249 0.088534996 -0.026271727
000160 34 da da bc 02 8a 41 3d 37 46 e9 bc 12 4c d0 3d
       -0.026715375 0.047250755 -0.028475864 0.10170759
000170 38 ad db 3d 84 12 41 bd 72 80 d4 bd ba df e5 bd
       0.10726398 -0.0471368 -0.103760615 -0.11224313
000180 ae 1b b5 3d 78 0e cf bd 63 be ee 3d da 8c 95 bd
       0.0884317 -0.101101816 0.11657407 -0.07302256
000190 23 ba 4c bd 9d eb 6d 3d 9d 92 fa 3d 71 24 ad bd
       -0.0499822 0.058086026 0.122349955 -0.08454216
0001a0 86 9b 50 3c 70 d9 e5 3d 29 b1 04 3e f7 dd e3 3d
       0.012732392 0.112231135 0.12958206 0.11126321
0001b0 0b 12 9d bd 1e 73 df bc de e4 fe 3d 39 be 67 3c
       -0.07669457 -0.027276572 0.12445997 0.014144474
0001c0 f8 ca 61 bc 5b 03 91 3c 7b 00 55 bd f5 90 ab 3d
       -0.013781302 0.017701795 -0.05200241 0.08377258
0001d0 81 ee 70 bd 6a 87 50 3c 8a 1a 2b bc a7 ed 85 3d
       -0.058821205 0.012727598 -0.010443339 0.06539469
0001e0 d7 44 c6 3d 0e 11 d9 bd cc ba 11 3e 34 0b f1 3c
       0.09681099 -0.10598956 0.14231414 0.029424287
0001f0 6b 99 3b bd a5 50 0d 3e f1 27 e1 3d 10 8e 54 3d
       -0.045800608 0.13800295 0.10993946 0.051893294
000200 8b 30 34 3d 77 3a 6f 3d 0c e8 40 bd ce b0 b0 bd
       0.043991607 0.058405366 -0.047096297 -0.08627473
000210 5f 28 05 3d 59 26 ba 3d 16 e6 75 3d 9b b2 18 3b
       0.032509204 0.090893455 0.06003388 0.0023299817
000220 40 98 93 bd 26 d6 c3 bd 9a b4 fe 3d cc 28 be 3d
       -0.07206774 -0.0956233 0.12436791 0.09285125
000230 f0 59 b2 3d 9b 53 ab bd 35 0e 03 3e 14 e0 34 bd
       0.087085605 -0.08365556 0.12798388 -0.04415901
000240 a2 4a 98 3c d1 da 4c bc c2 9a be bd f5 45 14 3d
       0.018590275 -0.012503342 -0.093068615 0.03619953
000250 02 26 19 bb 5a 7d 88 3d 73 78 ca bc f3 e7 d9 bd
       -0.0023368602 0.06664534 -0.024715638 -0.10639944
000260 9e d8 4d bd 72 a7 6a 3c a8 62 6a 3d 61 ff a9 bd
       -0.05025541 0.014322149 0.057222992 -0.08300663
000270 39 73 e4 3c f6 61 e0 3c 38 1a 8e bc 2c 4b 5f bd
       0.027886974 0.027390461 -0.017346486 -0.05451505
000280 aa a9 5f bd b1 3e 19 bd c6 94 b0 3d 0e 81 5d 3d
       -0.054605164 -0.037413303 0.08622126 0.054078154
000290 ac 28 70 3d 77 ff a7 bb 4b ea 29 3d 69 77 00 be
       0.058632538 -0.0051268893 0.041483205 -0.12545551
0002a0 f5 f1 4d 3d e3 db 9f 3d 50 5d b0 3d 87 43 da bd
       0.050279576 0.07805612 0.08611548 -0.10657411
0002b0 a9 a5 e4 bd c0 36 4a 3b d1 8e b0 3d ee 3c fe bd
       -0.1116441 0.0030855387 0.0862099 -0.12413965
0002c0 af 28 da 3d 10 25 81 3c dd 79 bb 3c cf 24 b5 bd
       0.10652291 0.015764743 0.022885257 -0.08844911
0002d0 d7 fe e9 bd 07 42 73 3c 0b bd dc 3d 47 80 01 bd
       -0.1142556 0.014847285 0.107782446 -0.031616475
0002e0 c7 03 8f 3d 9d e2 d3 bb d0 3d fe bd 7b f9 c5 bd
       0.06983142 -0.0064662234 -0.124141335 -0.09666725
0002f0 08 a8 ef 3d 20 b0 86 bc d5 0c 6e bd df c6 33 3c
       0.11701971 -0.016441405 -0.058117706 0.0109727075
000300 ff 68 0e 3c 67 b9 06 bd 3c 06 57 bd 37 50 86 3d
       0.008692025 -0.032891657 -0.05249618 0.065582685
000310 48 34 6b 3d 0a 47 31 3d 6c 5e 9d bd 7e 00 2a 3d
       0.057422906 0.04328064 -0.07684025 0.041504376
000320 00 9f 52 3d 62 53 21 bb bf e0 c9 bd 04 bc 95 bd
       0.051421165 -0.002461635 -0.0985732 -0.07311252
000330 c3 63 3c 3d 79 50 06 bd 7f 4e 8c bd f0 b4 81 3d
       0.045993578 -0.03279159 -0.068509094 0.06333339
000340 ea 96 b1 3d 4e c7 07 be 2c 37 b5 3d f4 d6 1b bd
       0.08671363 -0.13259622 0.08848414 -0.038046792
000350 8f 95 a8 bb 3e 86 42 bd e1 ab 41 3d 80 e7 0a be
       -0.005144782 -0.047491305 0.047283057 -0.13564873
000360 7a 42 cf 3d 9c 1f f3 bb 92 50 9e 3b a0 e3 8f bc
       0.10120101 -0.0074195396 0.004831382 -0.017564595
000370 ef b2 df 3d 58 70 c9 bc 01 2e f4 bc 88 0c 09 3e
       0.10922801 -0.024589702 -0.029807093 0.13383687
000380 c9 bd d8 3d 2a c8 3d bd df 0d 99 3d a7 11 7e bd
       0.10583074 -0.04633347 0.07473349 -0.062028553
000390 6e f7 d5 3c 57 0a fe 3d 6e 07 d2 3d 15 08 ec bd
       0.02611896 0.12404316 0.10255323 -0.11524979
0003a0 a3 aa 09 3d e6 13 86 3c 4a f4 56 bd fc e6 36 bd
       0.033609997 0.01636691 -0.052479066 -0.044653878
0003b0 6c 25 5f bd 13 3a 82 3c d4 e8 6f bd d0 52 f7 bc
       -0.054479048 0.015896833 -0.05857165 -0.030190855
0003c0 72 47 f5 bd 24 52 9b 3d f5 5e a9 bd 25 ea 43 ba
       -0.11976518 0.075840265 -0.08270065 -0.000747355
0003d0 35 a7 bc 3d af 0c cd 3c e3 c7 c5 3d 95 58 df 3d
       0.0921158 0.025030462 0.09657266 0.109055676
0003e0 98 f3 10 3d 2c 46 93 bd 2d 10 80 3d d5 92 87 ba
       0.03538856 -0.071911186 0.06253085 -0.0010343442
0003f0 ed d4 9c 3c c2 e8 c9 bb 29 72 ec b9 2e 30 2c bd
       0.0191445 -0.00616178 -0.00045098484 -0.042038135

bias f4 [10]
000000 52 b7 5f bb a3 00 ce 3d 9f 98 bd 3d b0 2c 3c bd
       -0.0034136367 0.10058715 0.09257626 -0.045941055
000010 6d 73 69 3d 86 0f 9b 3d cb f2 99 3d 78 39 b2 bd
       0.056994844 0.0757132 0.07517012 -0.087023675
000020 24 d6 15 bd 3e ba 9c 3a
       -0.036581174 0.001195736
